models/coonegondo.tflite (tflite, 206748 bytes, 9 tensors)

Const_1 f4 [32]
0.023236156 0.003246438 0.007037163 0.011389425 -0.02096073 -0.007514124 -0.022089105 -0.025381222
-0.0021366354 -0.006461145 0.0072051897 -0.007700275 0.005888062 -0.012315652 -0.008676482 -0.025441317
0.0032107967 0.018262308 0.018529048 0.002408482 0.012210137 -0.021544676 0.017651951 -0.0047127134
-0.01766935 -0.0154477125 -0.0016028292 0.007466019 0.008025139 0.007951326 -0.014867919 0.017763952
00000000: c059 be3c 31c2 543b 0098 e63b b69a 3a3c
00000010: d6b5 abbc 0a39 f6bb 36f4 b4bc 48ec cfbc
00000020: cb06 0cbb 03b8 d3bb 8319 ec3b 9752 fcbb
00000030: a5f0 c03b 97c7 49bc ce27 0ebc 4f6a d0bc
00000040: 3b6c 523b d69a 953c 3bca 973c 9fd7 1d3b
00000050: 070d 483c 767e b0bc d39a 903c 1b6d 9abb
00000060: 50bf 90bc 6718 7dbc 0616 d2ba 82a5 f43b
00000070: df7b 033c 4746 023c 9298 73bc b585 913c

Const_2 f4 [32]
0.99898803 0.9972802 1.0186485 0.9962569 1.0312316 1.0632454 0.9975081 1.0133663
0.96342105 0.99237835 0.9998527 1.0273364 1.0031875 0.9995107 0.99033105 1.0005056
1.0015668 0.9723846 0.96180665 0.9894074 1.0041932 0.968771 0.99770385 0.9976114
0.997367 0.99250823 0.9439632 1.0442755 1.0069544 1.0055532 0.995256 1.0122613
00000000: aebd 7f3f c14d 7f3f 1363 823f b10a 7f3f
00000010: 66ff 833f 6d18 883f b15c 7f3f fdb5 813f
00000020: c3a2 763f 820c 7e3f 59f6 7f3f c27f 833f
00000030: 7368 803f efdf 7f3f 5686 7d3f 9110 803f
00000040: 5733 803f 32ee 783f f638 763f ce49 7d3f
00000050: 6789 803f 6001 783f 8569 7f3f 7663 7f3f
00000060: 7253 7f3f 0515 7e3f 93a7 713f d2aa 853f
00000070: e2e3 803f f8b5 803f 19c9 7e3f c791 813f

Const_3 f4 [32]
-0.00725001 -0.010451852 0.0106853545 -0.008313894 0.04506028 0.020797202 -0.012790909 -0.0025656684
0.012460815 -0.013225957 -0.00014671504 -0.0028650537 0.0020452875 -0.00056195963 -0.0073893624 0.003558339
0.024075327 -0.0034612536 -0.004218607 -0.04924941 0.020352809 0.01772586 -0.009289135 -0.012203522
-0.010023174 0.024244845 0.006322895 0.028856693 0.012992037 0.010966199 -0.010667629 0.021946983
00000000: 7e91 edbb 3f3e 2bbc a011 2f3c 0037 08bc
00000010: 2191 383d e55e aa3c f690 51bc c624 28bb
00000020: 7228 4c3c afb1 58bc 85d7 19b9 a0c3 3bbb
00000030: 3b0a 063b 7950 13ba 7722 f2bb 0633 693b
00000040: 9f39 c53c 33d6 62bb 3e3c 8abb c0b9 49bd
00000050: efba a63c d335 913c 7531 18bc 48f1 47bc
00000060: 3d38 24bc 209d c63c 4a30 cf3b df64 ec3c
00000070: 8edc 543c 93ab 333c 47c7 2ebc 29ca b33c

Const_5 f4 [32]
0.059005465 0.109951235 -0.18533011 0.09127049 -0.1444523 -0.0686095 -0.13962635 -0.06969467
0.14627121 -0.039295863 -0.17186949 -0.08150757 0.087104835 -0.015995715 -0.05144781 -0.092147745
-0.083122626 -0.0345427 -0.09683492 -0.023233399 -0.005351085 -0.100611545 0.04413521 0.12899043
-0.09811087 -0.016519662 -0.11216467 0.05270202 0.16036633 -0.04510775 -0.1554208 0.030072123
00000000: b7af 713d 1d2e e13d 2dc7 3dbe 06ec ba3d
00000010: 4eeb 13be 2383 8cbd 36fa 0ebe 14bc 8ebd
00000020: 1fc8 153e b3f4 20bd 8efe 2fbe 71ed a6bd
00000030: 0564 b23d 7209 83bc f0ba 52bd f5b7 bcbd
00000040: 323c aabd a57c 0dbd 6351 c6bd f853 bebc
00000050: 2858 afbb 6d0d cebd 1fc7 343d 1116 043e
00000060: 5aee c8bd 3e54 87bc 97b6 e5bd 13de 573d
00000070: 1237 243e e7c2 38bd a126 1fbe d059 f63c

Const_6 f4 [32]
0.91529846 1.3471218 1.0556353 1.1201874 1.2728322 0.98407334 1.1609056 0.99819624
1.0254155 1.0011883 1.045316 1.2950137 1.2407902 1.0157846 1.0125029 1.0852811
0.9946743 1.0710287 1.0090023 0.9973041 1.0074307 0.99818814 1.3106909 1.3443611
1.0009576 0.9989077 1.001487 1.006528 1.3098365 1.0065683 1.097725 1.1204349
00000000: 0051 6a3f 7d6e ac3f 0f1f 873f 4d62 8f3f
00000010: 2aec a23f 3bec 7b3f 8e98 943f ca89 7f3f
00000020: d140 833f f026 803f eacc 853f 02c3 a53f
00000030: 37d2 9e3f 3b05 823f b299 813f 7eea 8a3f
00000040: faa2 7e3f 7817 893f fd26 813f 524f 7f3f
00000050: 7df3 803f 4289 7f3f b8c4 a73f 0614 ac3f
00000060: 611f 803f 6ab8 7f3f ba30 803f e9d5 803f
00000070: b9a8 a73f 3bd7 803f 4182 8c3f 696a 8f3f

Const_7 f4 [32]
-0.07013291 0.31221193 0.023658233 0.07099072 0.2855282 -0.039718352 0.055260085 -0.0073961793
0.01238083 0.004677904 0.024121601 0.2905149 0.26781687 0.0053143376 0.007769763 0.04366564
-0.00963005 0.042024348 0.007962553 -0.0039373366 0.046761226 -0.0026973735 0.29512718 0.31407017
-0.0017777293 -0.007492936 0.004139668 0.0039016872 0.29754058 0.011249092 0.03584375 0.036342412
00000000: d8a1 8fbd 3eda 9f3e e9ce c13c 9563 913d
00000010: c130 923e b6af 22bd 6658 623d a65b f2bb
00000020: f7d8 4a3c 1a49 993b aa9a c53c 5ebe 943e
00000030: 4b1f 893e e523 ae3b 7f99 fe3b beda 323d
00000040: 5bc7 1dbc b921 2c3d 5e75 023c c604 81bb
00000050: b388 3f3d 6bc6 30bb e91a 973e cecd a03e
00000060: b202 e9ba 4e87 f5bb 0da6 873b 73b3 7f3b
00000070: 3d57 983e 1d4e 383c e5d0 123d c8db 143d

MatMul f4 [32, 1536]
0.006809999 0.013836396 -0.016112085 -0.015656786 -0.0049493206 0.019196121 -0.0148098385 0.02416617
-0.025486514 0.025922028 0.008351329 -0.004528359 -0.0119305 -0.004509977 0.0037541895 0.00217245
-0.012163195 0.007302402 -0.00517758 -0.011328776 -0.010430786 -0.0149453115 0.001866876 -0.03828022
-0.023525 0.032143716 0.018401254 -0.02269938 0.022589535 0.018229246 -0.015928404 -0.016928423
-0.005522384 0.0052334825 -0.027982457 0.0059888894 0.013895315 0.027067462 -0.005666499 -0.029570838
-0.008409196 -0.012237933 -0.008999544 0.0168447 0.00600115 -0.012979037 -0.0031464405 -0.021659527
0.012293766 0.020948565 0.0041630273 0.009656074 0.015530547 -0.007988872 0.006359073 -0.0033638454
-0.0032047539 -0.01945715 0.0032051709 -0.020712396 0.03888053 0.009388253 0.02096556 -0.0027991014
0.0055494714 -0.005313661 0.04646455 -0.028676908 -0.0063587152 -0.014133336 0.0060753236 0.018870717
0.015264849 0.027347466 -0.009446702 0.0252296 0.015982226 -0.018296594 -0.00019884718 -0.004647907
-0.0013360948 -0.0041171047 -0.028018264 0.0332475 0.0064420155 -0.010468557 -0.004913725 -0.033695377
0.011790204 -0.0074309395 0.0071277353 0.020896837 -0.018071372 -0.01425828 0.006329349 -0.0062825973
-0.010049318 -0.015866743 -0.009086581 -0.011091656 0.0065230946 -0.005030301 0.027084466 -0.004334862
-0.03015463 -0.017415257 -0.013074706 0.00901933 -0.02787328 0.006458988 0.014220534 0.011196862
-0.008365923 -0.00029228674 -0.013536281 0.024504049 -0.0023836796 0.016815221 -0.0005694971 -0.004505037
-0.029158086 0.019308204 0.02492112 -0.016432919 -0.0011588613 0.020092074 0.020542534 -0.010284514
-0.0015755969 0.022826238 -0.029474398 0.02375393 0.017512335 -0.009852151 0.016437426 -0.0021639063
-0.020587282 -0.008435637 9.181896e-05 0.02213693 0.006621445 -0.036276348 0.016284198 -0.024284843
0.0082302 0.02560961 0.0099317925 0.00067502615 0.012711497 0.022292497 -0.011175956 0.029232284
-0.0154887885 0.019520376 -0.018940283 -0.015701637 -0.006830017 0.009508944 -0.0013796191 -0.020288816
-0.019376526 -0.011800815 0.021671003 -0.011354008 0.021164348 0.0028822122 0.02956736 -0.012123856
0.012502347 0.0025146145 -0.0005473389 0.0035379466 0.034596276 -0.006806637 -0.010836096 0.02444536
8.0011385e-05 0.0068862895 -0.0065793907 0.01711488 -0.016137423 -0.016702196 0.00847395 -0.002973662
-0.007769451 -0.0021376344 -0.0024779162 0.017001739 0.017761553 0.009610444 0.010825957 0.015623869
-0.0050438303 0.00055234774 -0.014687636 -0.012531358 0.030209715 -0.012300768 0.018696856 -0.013592005
-0.014233147 -9.7415425e-05 -0.020679163 -0.04621324 -0.020409653 -0.026738856 -0.016115554 -0.01665673
0.009619219 0.01775361 -0.022971151 -0.0101779075 -0.012333727 -0.0144037735 0.02054796 -0.009949041
-0.012265176 0.027889146 0.011678047 -0.037077986 -0.0009957037 0.026129495 0.024862444 0.024868736
0.0049363673 -0.016587464 -0.012029593 -0.0015905696 0.01691484 0.008962943 0.018852143 -0.01947036
0.01943157 0.008073337 0.016296243 0.020065676 -0.0069472096 -0.013178206 -0.024097696 -0.038036443
-0.0016332276 0.007845531 0.00076193054 -0.01893678 -0.02963491 0.03035229 0.015613952 -0.003413649
0.031482387 0.005195643 0.025454734 -0.018438783 0.032817002 -0.025823778 -0.0012726837 -0.028099045
00000000: 6926 df3b 0db2 623c 7efd 83bc a942 80bc
00000010: e92d a2bb 2f41 9d3c f7a4 72bc 22f8 c53c
00000020: 18c9 d0bc 6f5a d43c 03d4 083c a162 94bb
00000030: 2578 43bc 6ec8 93bb d908 763b aa5f 0e3b
00000040: 2348 47bc fd48 ef3b b0a8 a9bb 559c 39bc
00000050: e3e5 2abc 2edd 74bc f7b1 f43a b8cb 1cbd
00000060: 80b7 c0bc 21a9 033d 3abe 963c 0df4 b9bc
00000070: b00d b93c 8055 953c 497c 82bc 7aad 8abc
00000080: 1df5 b4bb a27d ab3b 773b e5bc 723e c43b
00000090: 2da9 633c 95bc dd3c 0aae b9bb 8b3e f2bc
000000a0: b9c6 09bc 9d81 48bc d372 13bc e5fd 893c
000000b0: 4ba5 c43b 07a6 54bc 8334 4ebb 526f b1bc
000000c0: cb6b 493c 539c ab3c 016a 883b 8334 1e3c
000000d0: d673 7e3c c2e3 02bc c55f d03b f673 5cbb
000000e0: d906 52bb 9a64 9fbc d80d 523b 0bad a9bc
000000f0: 3141 1f3d 30d1 193c f7bf ab3c 2171 37bb
00000100: 57d8 b53b 381e aebb 9d51 3e3d d6eb eabc
00000110: c55c d0bb 828f 67bc 8213 c73b c396 9a3c
00000120: 6b19 7a3c cb07 e03c 57c6 1abc 4eae ce3c
00000130: 28ed 823c bde2 95bc a281 50b9 784d 98bb
00000140: e71f afba c7e8 86bb 8f86 e5bc 882e 083d
00000150: 8b17 d33b 4f84 2bbc 5003 a1bb 2a04 0abd
00000160: b32b 413c 3d7f f3bb c78f e93b d82f ab3c
00000170: 6a0a 94bc 909b 69bc 6d66 cf3b 3fde cdbb
00000180: e5a5 24bc f9fa 81bc e2df 14bc c7b9 35bc
00000190: afbf d53b 39d5 a4bb 3ee0 dd3c 750b 8ebb
000001a0: d806 f7bc 71aa 8ebc 4b37 56bc d0c5 133c
000001b0: 8156 e4bc eba5 d33b 3efd 683c 0b73 373c
000001c0: 3911 09bc 103e 99b9 47c7 5dbc b7bc c83c
000001d0: 8237 1cbb 13c0 893c 4e4a 15ba fd9e 93bb
000001e0: f0dc eebc 3d2c 9e3c 6027 cc3c 549e 86bc
000001f0: efe4 97ba 2298 a43c d148 a83c 6180 28bc
00000200: 4284 ceba 17fe ba3c 4b74 f1bc 9a97 c23c
00000210: 0776 8f3c eb6a 21bc c8a7 863c 53d0 0dbb
00000220: a9a6 a8bc a035 0abc ee8e c038 8258 b53c
00000230: b5f8 d83b 8296 14bd 7066 853c 02f1 c6bc
00000240: f6d7 063c 3fcb d13c f5b8 223c 3df4 303a
00000250: e243 503c c19e b63c 5b1b 37bc 8b78 ef3c
00000260: b0c4 7dbc 32e9 9f3c a728 9bbc b8a0 80bc
00000270: 56ce dfbb 67cb 1b3c 56d4 b4ba bb34 a6bc
00000280: 85bb 9ebc 3558 41bc 6387 b13c 2906 3abc
00000290: db60 ad3c 7fe3 3c3b 4037 f23c 23a3 46bc
000002a0: a5d6 4c3c 3bcc 243b 4b7b 0fba e5dc 673b
000002b0: d3b4 0d3d 360a dfbb e189 31bc a341 c83c
000002c0: c9cb a738 62a6 e13b ee97 d7bb 8134 8c3c
000002d0: a132 84bc 0bd3 88bc 53d6 0a3c c5e1 42bb
000002e0: e196 febb 8e17 0cbb 8964 22bb 3b47 8b3c
000002f0: ad80 913c 2075 1d3c 5b5f 313c 42fb 7f3c
00000300: b746 a5bb 6ecb 103a 69a4 70bc 5350 4dbc
00000310: 5d7a f73c 2989 49bc 262a 993c 00b1 5ebc
00000320: 2532 69bc 824b ccb8 5967 a9bc 184a 3dbd
00000330: 2532 a7bc 720b dbbc c404 84bc b273 88bc
00000340: ee99 1d3c 0570 913c ff2d bcbc 3dc1 26bc
00000350: 6713 4abc cefd 6bbc 3254 a83c 4d01 23bc
00000360: e0f3 48bc c777 e43c 4755 3f3c 16df 17bd
00000370: 4682 82ba 860d d63c 53ac cb3c 85b9 cb3c
00000380: 40c1 a13b 6fe2 87bc c517 45bc a97a d0ba
00000390: fe90 8a3c 4fd9 123c cf6f 9a3c 4e80 9fbc
000003a0: f52e 9f3c 0846 043c b37f 853c c660 a43c
000003b0: 6ba5 e3bb 67e9 57bc 8868 c5bc 1acc 1bbd
000003c0: 0612 d6ba 8b8a 003c 4bbc 473a 4e21 9bbc
000003d0: e9c4 f2bc 5ea5 f83c a9d1 7f3c 87b7 5fbb
000003e0: adf3 003d 3640 aa3b 7286 d03c ee0c 97bc
000003f0: 1f6b 063d 638c d3bc 2ed0 a6ba f82f e6bc

MatMul_1 f4 [32, 32]
-0.13367018 -0.07546023 0.18663971 0.11375905 -0.063995436 -0.08143402 0.017408444 -0.056553543
-0.0455033 0.14214359 0.13021506 0.014183479 0.096127205 -0.00854867 -0.0926255 0.14630607
-0.06381325 -0.055322833 -0.123121515 0.056115903 -0.17778954 -0.07533403 -0.02887096 -0.021028845
-0.155481 -0.06779958 -0.02652734 0.11591294 -0.07530452 0.040673424 0.073946215 -0.14215963
-0.1291839 0.08976513 0.20527183 0.052551623 0.039457027 0.1475435 -0.10946227 0.10414214
-0.053473253 -0.01684433 -0.112907104 -0.118037276 0.037024938 -0.13258474 -0.08807225 -0.00028131384
-0.113431096 0.008665571 -0.073082805 0.10364074 0.006598254 0.113625 0.033267576 -0.017196042
-0.04448602 0.02715973 0.081369996 -0.11065532 0.07615209 0.17843287 0.091951266 -0.034591835
-0.037564933 -0.09557731 0.03024598 0.030512203 0.055567544 -0.11900184 0.16916694 -0.031608306
0.16057743 0.037360877 -0.0029934165 0.10992845 0.124838606 0.088603094 0.07547983 -0.047613267
0.029083358 0.14179647 -0.13070114 -0.079819836 0.07518553 -0.035886116 0.07944687 -0.040358555
-0.022603674 -0.115233004 0.055879004 0.12552759 -0.18074058 0.13104168 0.039956626 -0.13155892
0.09540801 0.08352941 -0.21203876 0.06350816 0.090228714 -0.06367655 -0.07392616 -0.07702024
-0.06315733 0.100387566 0.03341667 -0.007402379 -0.08985786 -0.051989023 -0.039073225 0.124966815
0.14401619 0.011106037 0.10156085 -0.05456797 0.03174292 -0.01096403 0.06940285 0.093955815
-0.073555656 -0.056731284 0.09152277 0.08736444 -0.13975924 0.0058554634 -0.12827365 -0.02102587
-0.028536668 0.17590617 0.18350537 -0.06842648 0.11746985 -0.026835384 0.009552023 -0.029137699
-0.0020286446 -0.11213197 0.13946933 -0.12545851 0.06704999 0.043992616 0.11286076 0.0058842176
0.1218435 -0.033899583 -0.009699351 0.0555483 -0.0060888235 0.12135323 -0.048511773 0.003134806
0.0075156433 0.08549742 -0.11252135 -0.026497543 0.12134315 0.15514375 0.15654002 -0.008345967
-0.1534895 -0.1628921 0.134501 -0.1527233 -0.024162812 0.056683414 0.041515786 0.046117097
-0.12018399 -0.1006921 0.10414879 -0.036518116 -0.106487535 0.10374402 -0.057527814 0.09734739
-0.010589704 0.018702045 0.022078488 -0.017175749 -0.124839626 -0.11826141 0.04902575 -0.17009662
0.16678856 -0.011115455 0.020625366 -0.15592335 0.060586102 0.08568865 0.09237138 0.0743568
0.10351584 0.13719507 -0.15355809 -0.020196604 0.1523185 -0.14420936 -0.06765741 -0.061259557
0.020308686 0.18285759 0.05563793 -0.0037234023 -0.08644398 0.124362044 -0.061323058 -0.1652441
0.18161957 -0.10479547 0.008190396 0.055412002 0.09659944 0.02940335 -0.076950446 -0.1393085
-0.059686176 -0.06491552 -0.015142882 0.18012767 -0.12784462 0.10008474 0.18217872 -0.10736189
-0.09752111 -0.05669186 -0.18478863 -0.016663766 0.11694563 0.09081553 -0.1775962 0.06929453
-0.053662688 -0.14005762 -0.064738445 -0.02669254 0.098993525 -0.16632165 -0.07956394 0.057364434
0.02427991 0.07995554 -0.17421547 -0.16647457 0.09948414 0.10302891 0.13601698 0.14804791
0.08007785 -0.123183295 0.13021374 0.00598414 0.1472863 -0.07639849 0.067899525 0.0932302
00000000: d6e0 08be e58a 9abd 7b1e 3f3e 81fa e83d
00000010: 0a10 83bd e1c6 a6bd 279c 8e3c b0a4 67bd
00000020: ab61 3abd 178e 113e 1957 053e d361 683c
00000030: 57de c43d b90f 0cbc 70b2 bdbd 42d1 153e
00000040: 85b0 82bd 329a 62bd 2227 fcbd cad9 653d
00000050: 760e 36be ba48 9abd cb82 ecbc af44 acbc
00000060: 6936 1fbe 82da 8abd dd4f d9bc c363 ed3d
00000070: 4239 9abd 2d99 263d 1d71 973d 4b92 11be
00000080: c948 04be c8d6 b73d c732 523e 5f40 573d
00000090: b19d 213d a515 173e c12d e0bd 7948 d53d
000000a0: c506 5bbd 1ffd 89bc d73b e7bd 87bd f1bd
000000b0: 76a7 173d 4bc4 07be 395f b4bd 4e7d 93b9
000000c0: 904e e8bd 0afa 0d3c 70ac 95bd 9941 d43d
000000d0: 2b36 d83b 39b4 e83d 9543 083d b7de 8cbc
000000e0: f936 36bd 157e de3c 50a5 a63d 429f e2bd
000000f0: a1f5 9b3d 1bb7 363e f250 bc3d 2bb0 0dbd
00000100: b0dd 19bd 09be c3bd 6bc6 f73c baf4 f93c
00000110: cb9a 633d 3db7 f3bd 193a 2d3e b677 01bd
00000120: 696e 243e b807 193d 322d 44bb 2b22 e13d
00000130: 62ab ff3d 8a75 b53d 2b95 9a3d 2106 43bd
00000140: 3940 ee3c 1833 113e 85d6 05be 9578 a3bd
00000150: dffa 993d 52fd 12bd 0ab5 a23d 034f 25bd
00000160: 572b b9bc 48ff ebbd 62e1 643d 4e8a 003e
00000170: 0f14 39be ca2f 063e 8fa9 233d 62b7 06be
00000180: 4665 c33d 7811 ab3d b020 59be 9110 823d
00000190: d5c9 b83d da68 82bd 9966 97bd cabc 9dbd
000001a0: a158 81bd ff97 cd3d ebdf 083d a88f f2bb
000001b0: 6607 b8bd 71f2 54bd 3f0b 20bd 9aee ff3d
000001c0: fb78 133e 18f6 353c 23ff cf3d aa82 5fbd
000001d0: dd04 023d 7aa2 33bc 1523 8e3d e86b c03d
000001e0: 59a4 96bd 105f 68bd 4a70 bb3d 21ec b23d
000001f0: 0c1d 0fbe 30df bf3b 2b5a 03be 723e acbc
00000200: bbc5 e9bc bf20 343e d5e8 3b3e 2f23 8cbd
00000210: 0894 f03d e1d5 dbbc 1780 1c3c 2fb2 eebc
00000220: 02f3 04bb 72a5 e5bd 0cd1 0e3e 3278 00be
00000230: 8151 893d 9a31 343d 8b23 e73d 65d0 c03b
00000240: 1689 f93d 4ada 0abd 07ea 1ebc 9d86 633d
00000250: c184 c7bb 0b88 f83d 48b4 46bd 5171 4d3b
00000260: c945 f63b 4519 af3d 9871 e6bd 6011 d9bc
00000270: c282 f83d 01de 1e3e 074c 203e 86bd 08bc
00000280: 5a2c 1dbe 30cd 26be a1ba 093e 7f63 1cbe
00000290: 17f1 c5bc de2c 683d 750c 2a3d 48e5 3c3d
000002a0: 0623 f6bd a937 cebd f64b d53d 0594 15bd
000002b0: 2316 dabd bf77 d43d 49a2 6bbd 125e c73d
000002c0: 7080 2dbc 0835 993c f2dd b43c 28b4 8cbc
000002d0: ebab ffbd 0a33 f2bd 3acf 483d cf2d 2ebe
000002e0: 9fca 2a3e 991d 36bc 87f6 a83c 5faa 1fbe
000002f0: 2229 783d 887d af3d 352d bd3d 6148 983d
00000300: 1d00 d43d dd7c 0c3e 553e 1dbe 5973 a5bc
00000310: 62f9 1b3e 9eab 13be f88f 8abd 4deb 7abd
00000320: 675e a63c 053f 3b3e 99e4 633d 5304 74bb
00000330: 8b09 b1bd 87b1 fe3d e32d 7bbd c035 29be
00000340: 7bfa 393e 029f d6bd 0331 063c b2f7 623d
00000350: edd5 c53d 4bdf f03c 3298 9dbd e3a6 0ebe
00000360: 7e79 74bd 6ef2 84bd da19 78bc 6373 383e
00000370: b3e9 02be 3af9 cc3d 0f8d 3a3e 8de0 dbbd
00000380: 26b9 c7bd b935 68bd 3b39 3dbe 7382 88bc
00000390: 3181 ef3d 7efd b93d c7db 35be 4aea 8d3d
000003a0: 68cd 5bbd 446b 0fbe 9795 84bd 50aa dabc
000003b0: 1ebd ca3d 3950 2abe 6bf2 a2bd f8f6 6a3d
000003c0: a9e6 c63c bbbf a33d 8a65 32be 4f78 2abe
000003d0: 57be cb3d d200 d33d 0948 0b3e df99 173e
000003e0: dbff a33d 8647 fcbd c056 053e 9b16 c43b
000003f0: 38d2 163e d076 9cbd e80e 8b3d 7aef be3d

MatMul_2 f4 [1, 32]
-0.05323134 -0.3500903 0.14772137 0.18528597 -0.33619902 0.088910885 0.12949 0.13584587
0.11402769 0.050126635 0.079714976 -0.3502966 -0.37291223 0.0905009 0.09493341 0.254357
0.16212694 0.199993 0.12997743 0.04436968 -0.07344074 0.10931718 -0.359258 -0.351477
-0.039402492 0.035868637 -0.1421484 0.16088773 -0.36451462 -0.0053274357 0.15028211 0.20825109
00000000: 1b09 5abd 093f b3be 4544 173e 9bbb 3d3e
00000010: 4722 acbe e916 b63d 0799 043e 2e1b 0b3e
00000020: 5987 e93d 9651 4d3d 9b41 a33d 135a b3be
00000030: 5aee bebe 8958 b93d 736c c23d 153b 823e
00000040: 9b04 263e f7ca 4c3e ce18 053e fbbc 353d
00000050: 1968 96bd b0e1 df3d aaf0 b7be cbf4 b3be
00000060: 8264 21bd feea 123d 5a8f 11be c1bf 243e
00000070: a9a1 babe c591 aebb 8ee3 193e c63f 553e
